…
code","execution_count":null,"metadata":{"colab":{"base_uri":"https://localhost:8080/"},"executionInfo":{"elapsed":21,"status":"ok","timestamp":1763333601110,"user":{"displayName":" ","userId":"15168157512243010701"},"user_tz":-180},"id":"Eo-9Ag1cMl_E","outputId":"392f852f-e4b4-4ff9-9a6b-6f289eb60ae0"},"outputs":[{"name":"stdout","output_type":"stream","text":["----------------------------------------------------------------\n","        Layer (type)               Output Shape         Param #\n","================================================================\n","            Conv2d-1          [-1, 8, 222, 222]             224\n","              ReLU-2          [-1, 8, 222, 222]               0\n","         MaxPool2d-3          [-1, 8, 111, 111]               0\n","            Conv2d-4         [-1, 16, 109, 109]           1,168\n","              ReLU-5         [-1, 16, 109, 109]               0\n","         MaxPool2d-6           [-1, 16, 54, 54]               0\n","            Conv2d-7           [-1, 32, 52, 52]           4,640\n","              ReLU-8           [-1, 32, 52, 52]               0\n","         MaxPool2d-9           [-1, 32, 26, 26]               0\n","           Conv2d-10           [-1, 64, 24, 24]          18,496\n","             ReLU-11           [-1, 64, 24, 24]               0\n","        MaxPool2d-12           [-1, 64, 12, 12]               0\n","           Conv2d-13           [-1, 96, 10, 10]          55,392\n","             ReLU-14           [-1, 96, 10, 10]               0\n","        MaxPool2d-15             [-1, 96, 5, 5]               0\n","           Linear-16                   [-1, 42]         100,842\n","================================================================\n","Total params: 180,762\n","Trainable params: 180,762\n","Non-trainable params: 0\n","----------------------------------------------------------------\n","Input size (MB): 0.57\n","Forward/backward pass size (MB): 12.31\n","Params size (MB): 0.69\n","Estimated Total Size (MB): 13.57\n","----------------------------------------
…
